data.pth (torch, 7639 bytes, 6 tensors)

l1.weight f4 [8, 106]
000000 92 1b 5e be 92 d4 f5 3e 3e 79 38 3f 78 ec 8b be
       -0.21690205 0.4801374 0.7206 -0.2732885
000010 19 c6 18 bf 23 b4 33 3f 2f 67 42 be 02 94 99 bd
       -0.59677273 0.7019674 -0.18984674 -0.074989334
000020 02 5e 72 be ab 8b 6a be 58 4d 16 3e 43 d7 a8 be
       -0.23668674 -0.22904842 0.14677942 -0.32976732
000030 44 97 78 be ad af 18 bf eb 4a 1d 3f e7 fd ef 3e
       -0.24276453 -0.5964306 0.6144244 0.468734
000040 59 a0 2f 3f d6 8c e6 3e c0 e5 ae bd 89 3e b3 3c
       0.68604046 0.45029324 -0.08539915 0.021880405
000050 f3 67 a4 3e f0 f7 9b 3e 03 4b 3b 3d 09 35 2a 3e
       0.32110557 0.304626 0.045725834 0.16621794
000060 e3 9f 0e 3f 3e 18 c8 bd 9d d3 b5 3e 85 6e e8 3e
       0.5571272 -0.09770249 0.3551301 0.4539682
000070 f7 54 b7 3e b4 4d b2 bd e2 84 24 3e 54 28 89 3e
       0.3580701 -0.08706227 0.16066316 0.2678858
000080 b7 55 8b 3e 77 44 26 3f be 38 19 3f 56 96 96 3e
       0.27213833 0.6494822 0.59852207 0.29411572
000090 f7 49 ac 3c c7 7d fa 3e f2 94 8b be 25 4a 42 be
       0.021031363 0.48924085 -0.27262074 -0.18973596
0000a0 88 ba 99 3e 1b 73 f2 3e 3b f0 7a be a4 8f 75 bc
       0.30025125 0.47353444 -0.24505703 -0.01498786
0000b0 87 3b d1 be 2f 16 bd be a8 91 d3 be 44 41 04 3f
       -0.40865728 -0.36930987 -0.41322064 0.5166209
0000c0 09 55 ca 3c 0a f0 84 3e 2d 1d 4b 3d 13 8b ee 3d
       0.024698751 0.25964385 0.04958837 0.1164762
0000d0 bc 78 1a bf 8e c2 19 3f 01 63 be 3e 07 4a b7 be
       -0.60340476 0.6006249 0.3718491 -0.35798666
0000e0 47 b2 bd be 02 33 fd 3e 0c 9c 42 be 68 3f 35 3c
       -0.37050077 0.49452978 -0.1900484 0.0110624805
0000f0 e7 c3 47 3f ed 23 e9 be 77 c2 15 3e 97 9d f0 3e
       0.780333 -0.45535222 0.14624964 0.46995232
000100 68 c7 60 bd cf 8a 21 3f 8e e9 b2 3e 81 f4 03 3f
       -0.05487767 0.6310243 0.34943813 0.5154496
000110 3c 47 c9 3e 3a 23 d2 bb 26 cf 29 3f 2f 3c 01 3f
       0.3931216 -0.0064128907 0.6633171 0.5048246
000120 af 00 36 3f b1 9a ba 3e c2 ca 35 3f cc 80 f5 be
       0.71094793 0.36446145 0.7101251 -0.47949827
000130 3b ff dc 3d ca 8c 16 3f 11 bc b7 be e9 99 4e 3d
       0.10790869 0.5880858 -0.3588567 0.05043975
000140 d2 52 20 3d 24 b8 c0 3d 01 61 03 be 87 2e 0f be
       0.039141484 0.09410122 -0.12829973 -0.13982593
000150 51 5e df be 2e 35 c9 bd d7 a8 58 be eb a6 12 3f
       -0.43626645 -0.09824596 -0.21158157 0.57285947
000160 93 d1 9c be c5 c8 44 bd 6e e8 17 3f 26 d3 a0 bd
       -0.30628642 -0.04804303 0.59339035 -0.07852773
000170 de 25 19 bd 0b d7 fd 3d 14 68 e3 be 13 2f c0 3e
       -0.03738963 0.12394532 -0.44415343 0.37535915
000180 61 24 2c bd aa 6d dc 3e 28 cf bf be ee 1f 84 3e
       -0.04202688 0.43052417 -0.37462735 0.2580561
000190 ea 0c 05 be 7d ae 78 3e 49 8c 00 3e a0 4a d5 be
       -0.12993208 0.24285312 0.12553515 -0.41658497
0001a0 c4 5e 8e bd 49 7e 58 bd df 3b 79 3e 52 b1 1f 3f
       -0.06951669 -0.05285481 0.24339245 0.62379944
0001b0 22 c0 a8 be dc 1f 6f be 08 f4 ec 3e 6f 01 b1 3e
       -0.32959086 -0.23351997 0.4627993 0.34571406
0001c0 9f 9c 03 bd db 76 d1 bd 70 b9 a7 be c7 b5 92 be
       -0.032131787 -0.10227748 -0.32758665 -0.2865431
0001d0 09 e4 ec be 27 cd 08 bd e1 46 be 3e 5b 88 27 bc
       -0.46267727 -0.033398774 0.3716345 -0.010225381
0001e0 de 1b 9d 3e 2a 2f 2b be 98 2b 18 3e cb 5c ea 3e
       0.30685323 -0.1671721 0.1486038 0.4577392
0001f0 87 ec 48 3e 9b 44 3c 3e 01 40 06 bf 70 8e c4 be
       0.19621478 0.18385546 -0.5244141 -0.3838992
000200 8d 07 1e bf 12 ea 8e be 31 bc 94 3e 9b de 84 3f
       -0.6173027 -0.27912956 0.2904983 1.0380434
000210 bb 20 00 3f d5 5f dc be 1b 03 c2 bd 49 68 11 3e
       0.5004994 -0.43041864 -0.094732486 0.14199938
000220 5e b6 0f bf 0f c5 94 be 6d 7c 0b bf e9 f6 f7 3e
       -0.56137645 -0.29056594 -0.54486734 0.48430565
000230 0c f5 33 3e fa b5 c7 3e 71 7e 62 be 9d 5b 80 be
       0.17573947 0.39006025 -0.22118546 -0.25069895
000240 57 9e 83 be ae 4a f1 bc 64 07 6e bc 6c 28 26 be
       -0.2570674 -0.029454555 -0.014528129 -0.16226357
000250 d9 c3 25 be 67 9e 40 3e 61 94 a2 3e 93 4f 9b 3e
       -0.16187991 0.18810426 0.3175383 0.30334148
000260 e7 62 d3 3e 40 4e 3a 3f e1 67 8d be 73 d2 fc 3e
       0.41286394 0.7277565 -0.27618316 0.4937931
000270 55 50 23 3c 17 cd 99 bc ba fe bd 3e 12 19 10 be
       0.009967883 -0.018774552 0.37108403 -0.14072064
000280 18 54 e7 be 5e be 7a be 29 47 74 bd 59 a6 b6 3e
       -0.45181346 -0.24486682 -0.059638176 0.35673788
000290 7a 3d cd bd 36 25 b6 3e af e5 f7 3e d4 a2 11 be
       -0.10021491 0.35575265 0.48417422 -0.1422227
0002a0 3a d2 21 3f 5a 3a fb 3e 34 16 5a 3e 47 18 13 3f
       0.63211405 0.49067956 0.21297532 0.5745892
0002b0 c1 91 82 3d f7 78 2b 3f 3d 96 fe be 95 74 c7 be
       0.063754566 0.6698145 -0.49723998 -0.38956133
0002c0 a8 da 07 3f f0 a5 45 bf b9 55 00 be d6 c8 cc be
       0.5306802 -0.77206326 -0.125327 -0.39996976
0002d0 6e 0b 28 3e 98 19 3d be e8 e0 ce be 5e 01 e6 be
       0.1641061 -0.18466794 -0.40405965 -0.44922918
0002e0 d8 eb 4d bd c7 2b 37 3f 17 97 09 bf 2d 85 de 3e
       -0.050273746 0.71551174 -0.5374617 0.4346098
0002f0 d2 f8 e8 3d 1e 46 01 3e 7e a9 b3 bd 4f fa bb 3e
       0.11375584 0.12624404 -0.087725624 0.36714408
000300 f8 bd 67 3f 1e c7 45 3d d2 cb 5d 3e b3 44 ac be
       0.90524244 0.048285596 0.21659783 -0.33646163
000310 e9 16 8e 3d c8 f8 70 bd dd 84 52 3e 6f 6e 34 3f
       0.069379635 -0.058831006 0.20558496 0.7048101
000320 f8 64 77 3e cb 7a 24 3e 53 01 bf 3d fa e2 43 bf
       0.2415961 0.16062467 0.093264244 -0.76518214
000330 9c b7 95 be a4 59 b1 3e 39 0c 66 3e 36 b1 cb 3e
       -0.29241645 0.34638703 0.224656 0.3978364
000340 34 03 6f 3f 97 d0 a5 3d 37 95 0e 3e a4 fe 41 3e
       0.9336426 0.08096426 0.13924108 0.18944794
000350 2c 1b 35 3e 74 ae ef 3d 26 44 9b 3d 4f 2c 8d be
       0.17686146 0.11703196 0.07581358 -0.27572867
000360 ca 81 2b 3f d3 d4 64 be 01 20 03 3f 33 4c 3b bf
       0.6699492 -0.22346811 0.5122071 -0.73163146
000370 85 f8 fc 3e 6e 01 86 3e f0 d0 8a be 8d 30 97 3e
       0.49408355 0.26172966 -0.27112532 0.2952923
000380 49 b6 ed 3d c1 fa e7 3d a3 72 86 3e e9 9d 66 bd
       0.11607034 0.113271244 0.26259336 -0.05630294
000390 d2 d3 66 be dc b2 2e 3f 1e 96 8c 3e 6c d6 81 3e
       -0.2254174 0.6824167 0.2745828 0.25358903
0003a0 d8 40 0e be 65 6a 86 3e 75 a5 cb be 29 43 9c 3e
       -0.13891923 0.26253048 -0.3977467 0.3051999
0003b0 03 4e c0 bd 25 37 3b 3f 12 12 4d be 1d 6c df be
       -0.093898796 0.7313102 -0.20026425 -0.4363717
0003c0 64 d9 81 be 0c 37 8e 3e b7 26 7d be 4b 9a 6a 3e
       -0.25361168 0.27776372 -0.247218 0.2291042
0003d0 ec d3 05 bf e3 de 42 bf 07 3d 59 3e 78 fe 09 be
       -0.5227649 -0.7612135 0.21214686 -0.13475978
0003e0 90 87 1b 3f cc 1d 0d be 73 55 f8 3e ec c7 d0 3e
       0.60753727 -0.13780898 0.48502693 0.40777528
0003f0 7e b9 99 3e 3a 94 5b be 31 4f 58 3f 22 b2 62 3e
       0.30024332 -0.21443263 0.84495836 0.22138265

l1.bias f4 [8]
000000 92 9d de 3e 49 76 76 3f 43 c1 4b 3f 2f b7 79 3f
       0.43479592 0.9627424 0.7959177 0.9754514
000010 83 e2 14 3f 9c 9c ee 3e 4c 27 52 3f 6d ff d8 3e
       0.5815813 0.46603858 0.8209121 0.42382374

l2.weight f4 [8, 8]
000000 fc c6 2e 3f e2 78 26 3f e8 be 01 3f 29 7a 28 3f
       0.68272376 0.650282 0.50681925 0.658114
000010 91 77 48 bf b1 d8 c5 be 25 a2 8a bf 5a 6d ad be
       -0.78307444 -0.38641885 -1.0830733 -0.3387249
000020 af d0 85 bf 4a 16 48 3f c0 46 9c 3f 5e 01 57 3d
       -1.045431 0.7815901 1.2209091 0.05249154
000030 fe 10 95 3f 53 68 47 3f dc 87 9d 3f ba 28 b5 bc
       1.1645811 0.7789356 1.2307086 -0.022114147
000040 c7 bb 43 3f 5f 4a cb 3f 2c 91 c7 3e 8c 78 62 bf
       0.764584 1.5882071 0.38977945 -0.8846519
000050 c2 45 0c 3f b0 b8 42 3f 11 5f 43 3f 71 f3 cf 3f
       0.5479394 0.7606306 0.76316935 1.6246167
000060 19 e5 3c 3f b2 59 82 3f 08 55 a0 bf b9 92 15 3f
       0.73787075 1.0183623 -1.252595 0.58427006
000070 a8 72 da be ce cb ce 3e e1 d9 84 3d 2e b7 46 bf
       -0.426656 0.40389866 0.064868696 -0.7762326
000080 5f 83 3c be 0f cf 3f 3f 27 64 ab 3f a3 66 88 3f
       -0.18409489 0.7492532 1.3389939 1.0656322
000090 49 ba 4f bf 33 08 ae 3c cf 05 45 3e 1c ff 82 bf
       -0.81143624 0.021244144 0.19240497 -1.0234103
0000a0 f2 7e 5f 3f 7f 36 37 bd a2 57 5a 3f 8f ad 6e 3f
       0.8730308 -0.044729706 0.8528997 0.9323358
0000b0 32 72 50 be 8b 38 ba 3f e7 36 a4 bf 88 1e 87 be
       -0.20356062 1.4548506 -1.2829255 -0.2639048
0000c0 65 77 7b 3f e5 2a 89 bf aa d9 5c bf aa 95 dd 3e
       0.98229057 -1.0716215 -0.8626963 0.43278247
0000d0 32 41 92 3f 8f 85 7b 3f 4f 21 06 3f 33 ae 54 3f
       1.1426146 0.9825067 0.52394575 0.83078307
0000e0 fa b1 0a 38 38 f9 2d bf e1 40 3a 3f 6f 3a 9c 3f
       3.3067518e-05 -0.679584 0.7275525 1.2205333
0000f0 9d c3 68 3f ec eb 3c bf 99 0e 5c 3f 08 66 15 3e
       0.9092348 -0.7379749 0.85959774 0.14589703

l2.bias f4 [8]
000000 66 7d 89 3e 8f 5c 02 3f 08 45 dd 3d d5 5f 37 3f
       0.26853484 0.50922483 0.10804182 0.71630603
000010 01 03 d9 3e 14 9e f1 be 1d b2 01 3e ef 46 29 3f
       0.42385104 -0.47190917 0.12665601 0.6612386

l3.weight f4 [13, 8]
000000 b9 f9 06 c0 96 f4 00 3f 8b 3a 50 3f 16 dc c9 bf
       -2.1089919 0.5037321 0.8133933 -1.577029
000010 ee 86 32 bf 06 1a 7e bf 44 2c 9f bf d4 2b 94 be
       -0.69737136 -0.9925846 -1.2435384 -0.28939688
000020 24 00 04 bf 07 61 e8 3e 24 c0 f5 bd 09 81 c0 be
       -0.51562715 0.45386526 -0.119995385 -0.37598446
000030 b3 65 bd 3e 1f c2 8b 3e 89 00 db bf 0e aa 9e bf
       0.36991653 0.2729654 -1.7109538 -1.2395647
000040 76 f5 fe bd 4a c0 cb bc 2d 02 fa bc ed 2e 19 3f
       -0.12449162 -0.024871964 -0.030518616 0.5983723
000050 e1 be e7 be b1 b4 07 3f f8 06 24 bf e5 ed 12 c0
       -0.45262817 0.5301009 -0.64073133 -2.29577
000060 b0 11 15 3f 05 c9 9e bf 6e 9f 87 bf 18 88 47 3e
       0.58230114 -1.2405096 -1.0595529 0.1948551
000070 c1 ed 8e 3e 3e 04 7a 3e c6 cd be be b1 d6 a5 be
       0.27915767 0.24415681 -0.37266368 -0.3239036
000080 e7 f5 db bf 49 7c c6 3e 6b 1a 28 be 23 72 8c bf
       -1.7184418 0.38766697 -0.16416328 -1.0972332
000090 0c 12 f5 bf d6 10 b5 bf bc 49 00 3f 82 01 02 3e
       -1.9146132 -1.4145763 0.5011251 0.12695888
0000a0 d1 b1 13 c0 72 15 98 3e 59 bc 86 bf 5d 4d 9c bf
       -2.307728 0.2970386 -1.0526229 -1.2211109
0000b0 42 40 c9 be ac cd 2f 3e c3 c0 2b 3e 48 59 a1 3e
       -0.39306837 0.17168301 0.16772752 0.3151343
0000c0 36 8a a0 bf 5e f3 9f be 37 a0 20 3f fa 96 d9 3e
       -1.2542179 -0.31240362 0.6274447 0.42497998
0000d0 b5 21 e6 bf 19 5d 9a bf f4 ad 5f 3e 49 d9 85 bf
       -1.7979037 -1.2059661 0.21843702 -1.0456935
0000e0 ec f6 42 bd 0d 59 3a be 3c 65 fc bf 5b 77 c2 bf
       -0.047598764 -0.18198033 -1.9718394 -1.5192674
0000f0 cf 6d f8 3e d6 f0 c7 3e 0d 8b 83 bf 64 47 e4 3e
       0.48521277 0.3905093 -1.027681 0.44585717
000100 ce 41 df bf 6b d1 01 3f 55 11 45 bf dd 37 e0 3e
       -1.7441957 0.5071017 -0.7697957 0.4379262
000110 eb 7e 3a 3f 6c 0a db bf 5e 47 b7 bf e2 14 27 3f
       0.7284991 -1.7112556 -1.4318655 0.6526624
000120 28 a5 87 bf ab 9f 23 bf c4 e0 08 bf b0 90 11 3f
       -1.0597277 -0.6391551 -0.53467965 0.568614
000130 72 e2 b8 be 85 ae b8 3e 68 7f 31 3f 3a 91 4d bf
       -0.36110264 0.36070648 0.6933503 -0.80299723
000140 5b 46 39 3e 1a 33 96 3c 7b 29 9f 3e 61 57 90 3f
       0.18093245 0.018334914 0.31086335 1.1276666
000150 91 46 19 3c e5 3f aa bf 3c 17 c3 bf 4a 01 ff bf
       0.009355203 -1.3300749 -1.5241466 -1.9922268
000160 0c 8d c3 bd 8a c9 87 bf ab 93 f5 bf cf fa c8 3e
       -0.09548387 -1.060838 -1.918569 0.39253852
000170 35 fe 18 bf d5 0d 52 be 3d 84 df 3e 71 42 49 3f
       -0.5976289 -0.20513089 0.43655577 0.78617007
000180 c0 a0 bf bf f3 f5 b0 be 6d 67 8d 3e b6 71 b5 bf
       -1.4970932 -0.34562644 0.2761797 -1.4175327
000190 8f d6 92 bf 98 3f 35 3e e5 e3 04 3f cf 2c 25 bf
       -1.1471728 0.1770004 0.5191024 -0.645215

l3.bias f4 [13]
000000 a2 8a 9c 3e 3f 01 03 be cc 70 19 bf c8 9d b2 3d
       0.30574518 -0.12793444 -0.5993774 0.08721501
000010 ce 76 27 3d 67 3b 8d bd d9 c1 41 3e 9c 43 b1 be
       0.040884785 -0.06896096 0.18921603 -0.34621894
000020 0b f2 c9 3e 57 6b 60 be fb 71 b0 3e 72 56 95 3e
       0.39442477 -0.21915947 0.3446196 0.29167515
000030 bd 51 6f be
       -0.23371024
